Model: "model"
_________________________________________________________________
 Layer (type)                Output Shape              Param #   
=================================================================
 input_1 (InputLayer)        [(None, 1, 66650, 1)]     0         
                                                                 
 conv2d (Conv2D)             (None, 1, 33321, 8)       72        
                                                                 
 batch_normalization (BatchN  (None, 1, 33321, 8)      32        
 ormalization)                                                   
                                                                 
 re_lu (ReLU)                (None, 1, 33321, 8)       0         
                                                                 
 conv2d_1 (Conv2D)           (None, 1, 16659, 32)      1280      
                                                                 
 batch_normalization_1 (Batc  (None, 1, 16659, 32)     128       
 hNormalization)                                                 
                                                                 
 re_lu_1 (ReLU)              (None, 1, 16659, 32)      0         
                                                                 
 max_pooling2d (MaxPooling2D  (None, 1, 151, 32)       0         
 )                                                               
                                                                 
 permute (Permute)           (None, 32, 151, 1)        0         
                                                                 
 conv2d_2 (Conv2D)           (None, 32, 151, 32)       288       
                                                                 
 batch_normalization_2 (Batc  (None, 32, 151, 32)      128       
 hNormalization)                                                 
                                                                 
 re_lu_2 (ReLU)              (None, 32, 151, 32)       0         
                                                                 
 max_pooling2d_1 (MaxPooling  (None, 16, 75, 32)       0         
 2D)                                                             
                                                                 
 conv2d_3 (Conv2D)           (None, 16, 75, 32)        9216      
                                                                 
 batch_normalization_3 (Batc  (None, 16, 75, 32)       128       
 hNormalization)                                                 
                                                                 
 re_lu_3 (ReLU)              (None, 16, 75, 32)        0         
                                                                 
 conv2d_4 (Conv2D)           (None, 16, 75, 32)        9216      
                                                                 
 batch_normalization_4 (Batc  (None, 16, 75, 32)       128       
 hNormalization)                                                 
                                                                 
 re_lu_4 (ReLU)              (None, 16, 75, 32)        0         
                                                                 
 max_pooling2d_2 (MaxPooling  (None, 8, 37, 32)        0         
 2D)                                                             
                                                                 
 conv2d_5 (Conv2D)           (None, 8, 37, 32)         9216      
                                                                 
 batch_normalization_5 (Batc  (None, 8, 37, 32)        128       
 hNormalization)                                                 
                                                                 
 re_lu_5 (ReLU)              (None, 8, 37, 32)         0         
                                                                 
 conv2d_6 (Conv2D)           (None, 8, 37, 32)         9216      
                                                                 
 batch_normalization_6 (Batc  (None, 8, 37, 32)        128       
 hNormalization)                                                 
                                                                 
 re_lu_6 (ReLU)              (None, 8, 37, 32)         0         
                                                                 
 max_pooling2d_3 (MaxPooling  (None, 4, 18, 32)        0         
 2D)                                                             
                                                                 
 conv2d_7 (Conv2D)           (None, 4, 18, 32)         9216      
                                                                 
 batch_normalization_7 (Batc  (None, 4, 18, 32)        128       
 hNormalization)                                                 
                                                                 
 re_lu_7 (ReLU)              (None, 4, 18, 32)         0         
                                                                 
 conv2d_8 (Conv2D)           (None, 4, 18, 32)         9216      
                                                                 
 batch_normalization_8 (Batc  (None, 4, 18, 32)        128       
 hNormalization)                                                 
                                                                 
 re_lu_8 (ReLU)              (None, 4, 18, 32)         0         
                                                                 
 max_pooling2d_4 (MaxPooling  (None, 2, 9, 32)         0         
 2D)                                                             
                                                                 
 conv2d_9 (Conv2D)           (None, 2, 9, 32)          9216      
                                                                 
 batch_normalization_9 (Batc  (None, 2, 9, 32)         128       
 hNormalization)                                                 
                                                                 
 re_lu_9 (ReLU)              (None, 2, 9, 32)          0         
                                                                 
 conv2d_10 (Conv2D)          (None, 2, 9, 16)          4608      
                                                                 
 batch_normalization_10 (Bat  (None, 2, 9, 16)         64        
 chNormalization)                                                
                                                                 
 re_lu_10 (ReLU)             (None, 2, 9, 16)          0         
                                                                 
 max_pooling2d_5 (MaxPooling  (None, 1, 4, 16)         0         
 2D)                                                             
                                                                 
 dropout (Dropout)           (None, 1, 4, 16)          0         
                                                                 
 conv2d_11 (Conv2D)          (None, 1, 4, 10)          160       
                                                                 
 batch_normalization_11 (Bat  (None, 1, 4, 10)         40        
 chNormalization)                                                
                                                                 
 re_lu_11 (ReLU)             (None, 1, 4, 10)          0         
                                                                 
 average_pooling2d (AverageP  (None, 1, 1, 10)         0         
 ooling2D)                                                       
                                                                 
 flatten (Flatten)           (None, 10)                0         
                                                                 
 dense (Dense)               (None, 10)                110       
                                                                 
 softmax (Softmax)           (None, 10)                0         
                                                                 
=================================================================
Total params: 72,318
Trainable params: 71,674
Non-trainable params: 644
_________________________________________________________________
FLOPS : 7.13 G
