…
ESP                        PYTHON                  error
                                                                  Model: "sequential"
pred( 0 ) :                pred( 0 ) :                            _________________________________________________________________
score[0] : 0.0000000       score[0] : 0.0000000    0.0000000      Layer (type)                Output Shape              Param #              
score[1] : 0.0000000       score[1] : 0.0000000    0.0000000      =================================================================
score[2] : 0.0000006       score[2] : 0.0000008    0.0000002      conv2d (Conv2D)             (None, 26, 26, 16)        160         
score[3] : 0.0000000       score[3] : 0.0000000    0.0000000                                                        
score[4] : 0.0000006       score[4] : 0.0000009    0.0000003      conv2d_1 (Conv2D)           (None, 24, 24, 16)        2320 
score[5] : 0.0000003       score[5] : 0.0000004    0.0000001      
score[6] : 0.9999980       score[6] : 0.9999969    0.0000011      conv2d_2 (Conv2D)           (None, 22, 22, 16)        2320       
score[7] : 0.0000000       score[7] : 0.0000000    0.0000000      
score[8] : 0.0000005       score[8] : 0.0000007    0.0000002      conv2d_3 (Conv2D)           (None, 20, 20, 16)        2320      
score[9] : 0.0000000       score[9] : 0.0000000    0.0000000
--------------------       --------------------                   conv2d_4 (Conv2D)           (None, 18, 18, 16)        2320     
pred( 1 ) :                pred( 1 ) : 
score[0] : 0.0000000       score[0] : 0.0000000    0.0000000      conv2d_5 (Conv2D)           (None, 16, 16, 16)        2320     
score[1] : 0.0000000       score[1] : 0.0000000    0.0000000
score[2] : 0.9994783       score[2] : 0.9994183    0.0000600      conv2d_6 (Conv2D)           (None, 14, 14, 16)        2320      
score[3] : 0.0000138       score[3] : 0.0000174    0.0000036      
score[4] : 0.0000000       score[4] : 0.0000000    0.0000000      conv2d_7 (Conv2D)           (None, 12, 12, 16)        2320     
score[5] : 0.0000000       score[5] : 0.0000000    0.0000000      
score[6] : 0.0000000       score[6] : 0.0000000    0.0000000      conv2d_8 (Conv2D)           (None, 10, 10, 16)        2320      
score[7] : 0.0005078       score[7] : 0.0005639    0.0000561                         
score[8] : 0.0000000       score[8] : 0.0000000    0.0000000      conv2d_9 (Conv2D)           (None, 8, 8, 16)          2320      
score[9] : 0.0000001       score[9] : 0.0000001    0.0000000     
--------------------       --------------------                   conv2d_10 (Conv2D)          (None, 6, 6, 16)          2320      
pred( 2 ) :                pred( 2 ) :                           
score[0] : 0.0000000       score[0] : 0.0000000    0.0000000      flatten (Flatten)           (None, 576)               0         
score[1] : 0.0000012       score[1] : 0.0000017    0.0000005     
score[2] : 0.0000103       score[2] : 0.0000131    0.0000028      dropout (Dropout)           (None, 576)               0         
score[3] : 0.9999546       score[3] : 0.9999427    0.0000119      
score[4] : 0.0000003       score[4] : 0.0000003    0.0000000      dense (Dense)               (None, 10)                5770      
score[5] : 0.0000020       score[5] : 0.0000027    0.0000007      =================================================================
score[6] : 0.0000000       score[6] : 0.0000000    0.0000000      Total params: 29,130
score[7] : 0.0000012       score[7] : 0.0000016    0.0000004      Trainable params: 29,130
score[8] : 0.0000299       score[8] : 0.0000365    0.0000066      Non-trainable params: 0
…
ESP                        PYTHON                  error
                                                                  Model: "sequential"
pred( 0 ) :                pred( 0 ) :                            _________________________________________________________________
score[0] : 0.0000062       score[0] : 0.0000080    0.0000018      Layer (type)                Output Shape              Param #              
score[1] : 0.0000004       score[1] : 0.0000006    0.0000002      =================================================================
score[2] : 0.0000003       score[2] : 0.0000004    0.0000001      conv2d (Conv2D)             (None, 26, 26, 16)        160             
score[3] : 0.0000003       score[3] : 0.0000004    0.0000001                                                        
score[4] : 0.0000955       score[4] : 0.0001116    0.0000161      conv2d_1 (Conv2D)           (None, 24, 24, 16)        2320      
score[5] : 0.0002892       score[5] : 0.0003264    0.0000372      
score[6] : 0.9996012       score[6] : 0.9995431    0.0000581      conv2d_2 (Conv2D)           (None, 22, 22, 64)        9280           
score[7] : 0.0000003       score[7] : 0.0000003    0.0000000      
score[8] : 0.0000059       score[8] : 0.0000077    0.0000018      conv2d_3 (Conv2D)           (None, 20, 20, 64)        36928      
score[9] : 0.0000008       score[9] : 0.0000011    0.0000003
--------------------       --------------------                   conv2d_4 (Conv2D)           (None, 18, 18, 64)        36928        
pred( 1 ) :                pred( 1 ) : 
score[0] : 0.0000000       score[0] : 0.0000000    0.0000000      conv2d_5 (Conv2D)           (None, 16, 16, 64)        36928      
score[1] : 0.0000000       score[1] : 0.0000000    0.0000000
score[2] : 0.9999986       score[2] : 0.9999979    0.0000007      conv2d_6 (Conv2D)           (None, 14, 14, 64)        36928         
score[3] : 0.0000005       score[3] : 0.0000007    0.0000002      
score[4] : 0.0000000       score[4] : 0.0000000    0.0000000      conv2d_7 (Conv2D)           (None, 12, 12, 64)        36928     
score[5] : 0.0000000       score[5] : 0.0000000    0.0000000      
score[6] : 0.0000000       score[6] : 0.0000000    0.0000000      conv2d_8 (Conv2D)           (None, 10, 10, 64)        36928         
score[7] : 0.0000000       score[7] : 0.0000000    0.0000000                         
score[8] : 0.0000009       score[8] : 0.0000013    0.0000004      conv2d_9 (Conv2D)           (None, 8, 8, 32)          18464      
score[9] : 0.0000000       score[9] : 0.0000000    0.0000000     
--------------------       --------------------                   conv2d_10 (Conv2D)          (None, 6, 6, 32)          9248      
pred( 2 ) :                pred( 2 ) :                           
score[0] : 0.0000000       score[0] : 0.0000000    0.0000000      flatten (Flatten)           (None, 1152)              0           
score[1] : 0.0000000       score[1] : 0.0000000    0.0000000     
score[2] : 0.0000000       score[2] : 0.0000000    0.0000000      dropout (Dropout)           (None, 1152)              0            
score[3] : 0.9999999       score[3] : 0.9999999    0.0000000      
score[4] : 0.0000000       score[4] : 0.0000000    0.0000000      dense (Dense)               (None, 10)                11530     
score[5] : 0.0000001       score[5] : 0.0000001    0.0000000      =================================================================
score[6] : 0.0000000       score[6] : 0.0000000    0.0000000      Total params: 272,570
score[7] : 0.0000000       score[7] : 0.0000000    0.0000000      Trainable params: 272,570
score[8] : 0.0000000       score[8] : 0.0000000    0.0000000      Non-trainable params: 0
…
ESP                        PYTHON                  error
                                                                  Model: "sequential"
pred( 0 ) :                pred( 0 ) :                            _________________________________________________________________
score[0] : 0.0000011       score[0] : 0.0000015    0.0000004      Layer (type)                Output Shape              Param #              
score[1] : 0.0000000       score[1] : 0.0000000    0.0000000      =================================================================
score[2] : 0.0000000       score[2] : 0.0000000    0.0000000      conv2d (Conv2D)             (None, 26, 26, 16)        160             
score[3] : 0.0000000       score[3] : 0.0000000    0.0000000                                                        
score[4] : 0.0000114       score[4] : 0.0000144    0.0000030      conv2d_1 (Conv2D)           (None, 24, 24, 16)        2320      
score[5] : 0.0000006       score[5] : 0.0000008    0.0000002      
score[6] : 0.9999869       score[6] : 0.9999830    0.0000039      conv2d_2 (Conv2D)           (None, 22, 22, 64)        9280           
score[7] : 0.0000000       score[7] : 0.0000000    0.0000000      
score[8] : 0.0000001       score[8] : 0.0000001    0.0000000      conv2d_3 (Conv2D)           (None, 20, 20, 64)        36928      
score[9] : 0.0000000       score[9] : 0.0000000    0.0000000
--------------------       --------------------                   conv2d_4 (Conv2D)           (None, 18, 18, 64)        36928        
pred( 1 ) :                pred( 1 ) : 
score[0] : 0.0015264       score[0] : 0.0016293    0.0001029      conv2d_5 (Conv2D)           (None, 16, 16, 64)        36928      
score[1] : 0.0000924       score[1] : 0.0001074    0.0000150
score[2] : 0.9958906       score[2] : 0.9955422    0.0003484      conv2d_6 (Conv2D)           (None, 14, 14, 32)        18464            
score[3] : 0.0008180       score[3] : 0.0008917    0.0000737      
score[4] : 0.0001750       score[4] : 0.0001990    0.0000240      conv2d_7 (Conv2D)           (None, 12, 12, 32)        9248       
score[5] : 0.0000161       score[5] : 0.0000199    0.0000038      
score[6] : 0.0000176       score[6] : 0.0000217    0.0000041      conv2d_8 (Conv2D)           (None, 10, 10, 32)        9248            
score[7] : 0.0000404       score[7] : 0.0000484    0.0000080                         
score[8] : 0.0012656       score[8] : 0.0013601    0.0000945      conv2d_9 (Conv2D)           (None, 8, 8, 32)          9248         
score[9] : 0.0001581       score[9] : 0.0001798    0.0000217    
--------------------       --------------------                   conv2d_10 (Conv2D)          (None, 6, 6, 32)          9248        
pred( 2 ) :                pred( 2 ) :                           
score[0] : 0.0000000       score[0] : 0.0000000    0.0000000      flatten (Flatten)           (None, 1152)              0           
score[1] : 0.0000001       score[1] : 0.0000001    0.0000000     
score[2] : 0.0000000       score[2] : 0.0000000    0.0000000      dropout (Dropout)           (None, 1152)              0            
score[3] : 0.9999918       score[3] : 0.9999892    0.0000026      
score[4] : 0.0000000       score[4] : 0.0000000    0.0000000      dense (Dense)               (None, 10)                11530     
score[5] : 0.0000076       score[5] : 0.0000097    0.0000021      =================================================================
score[6] : 0.0000000       score[6] : 0.0000000    0.0000000      Total params: 189,530
score[7] : 0.0000000       score[7] : 0.0000000    0.0000000      Trainable params: 189,530
score[8] : 0.0000005       score[8] : 0.0000007    0.0000002      Non-trainable params: 0
…
ESP                        PYTHON                  error
                                                                  Model: "sequential"
pred( 0 ) :                pred( 0 ) :                            _________________________________________________________________
score[0] : 0.0000001       score[0] : 0.0000001    0.0000000      Layer (type)                Output Shape              Param #              
score[1] : 0.0000000       score[1] : 0.0000000    0.0000000      =================================================================
score[2] : 0.0000000       score[2] : 0.0000000    0.0000000      conv2d (Conv2D)             (None, 26, 26, 16)        160             
score[3] : 0.0000000       score[3] : 0.0000000    0.0000000                                                        
score[4] : 0.0000000       score[4] : 0.0000000    0.0000000      conv2d_1 (Conv2D)           (None, 24, 24, 16)        2320      
score[5] : 0.0000012       score[5] : 0.0000017    0.0000005      
score[6] : 0.9999987       score[6] : 0.9999980    0.0000007      conv2d_2 (Conv2D)           (None, 22, 22, 32)        4640                
score[7] : 0.0000000       score[7] : 0.0000000    0.0000000      
score[8] : 0.0000000       score[8] : 0.0000000    0.0000000      conv2d_3 (Conv2D)           (None, 20, 20, 32)        9248         
score[9] : 0.0000000       score[9] : 0.0000000    0.0000000
--------------------       --------------------                   conv2d_4 (Conv2D)           (None, 18, 18, 32)        9248           
pred( 1 ) :                pred( 1 ) : 
score[0] : 0.0000024       score[0] : 0.0000033    0.0000009      conv2d_5 (Conv2D)           (None, 16, 16, 32)        9248          
score[1] : 0.0000029       score[1] : 0.0000038    0.0000009
score[2] : 0.9995294       score[2] : 0.9994651    0.0000643      conv2d_6 (Conv2D)           (None, 14, 14, 32)        9248               
score[3] : 0.0000254       score[3] : 0.0000312    0.0000058     
score[4] : 0.0000016       score[4] : 0.0000002    0.0000014      conv2d_7 (Conv2D)           (None, 12, 12, 32)        9248          
score[5] : 0.0000000       score[5] : 0.0000000    0.0000000      
score[6] : 0.0000001       score[6] : 0.0000001    0.0000000      conv2d_8 (Conv2D)           (None, 10, 10, 32)        9248               
score[7] : 0.0004033       score[7] : 0.0004515    0.0000482                         
score[8] : 0.0000350       score[8] : 0.0000424    0.0000074      conv2d_9 (Conv2D)           (None, 8, 8, 32)          9248         
score[9] : 0.0000001       score[9] : 0.0000000    0.0000001    
--------------------       --------------------                   conv2d_10 (Conv2D)          (None, 6, 6, 32)          9248        
pred( 2 ) :                pred( 2 ) :                           
score[0] : 0.0000000       score[0] : 0.0000000    0.0000000      flatten (Flatten)           (None, 1152)              0           
score[1] : 0.0000001       score[1] : 0.0000001    0.0000000     
score[2] : 0.0000001       score[2] : 0.0000001    0.0000000      dropout (Dropout)           (None, 1152)              0            
score[3] : 0.9999788       score[3] : 0.9999731    0.0000057      
score[4] : 0.0000000       score[4] : 0.0000000    0.0000000      dense (Dense)               (None, 10)                11530     
score[5] : 0.0000190       score[5] : 0.0000236    0.0000046      =================================================================
score[6] : 0.0000000       score[6] : 0.0000000    0.0000000      Total params: 92,634
score[7] : 0.0000000       score[7] : 0.0000000    0.0000000      Trainable params: 92,634
score[8] : 0.0000016       score[8] : 0.0000021    0.0000005      Non-trainable params: 0
…
