Model: "model"
_________________________________________________________________
 Layer (type)                Output Shape              Param #   
=================================================================
 input_1 (InputLayer)        [(None, 1, 12000, 1)]     0         
                                                                 
 conv2d (Conv2D)             (None, 1, 5996, 4)        36        
                                                                 
 batch_normalization (BatchN  (None, 1, 5996, 4)       16        
 ormalization)                                                   
                                                                 
 re_lu (ReLU)                (None, 1, 5996, 4)        0         
                                                                 
 conv2d_1 (Conv2D)           (None, 1, 2996, 16)       320       
                                                                 
 batch_normalization_1 (Batc  (None, 1, 2996, 16)      64        
 hNormalization)                                                 
                                                                 
 re_lu_1 (ReLU)              (None, 1, 2996, 16)       0         
                                                                 
 max_pooling2d (MaxPooling2D  (None, 1, 27, 16)        0         
 )                                                               
                                                                 
 conv2d_2 (Conv2D)           (None, 1, 27, 16)         768       
                                                                 
 batch_normalization_2 (Batc  (None, 1, 27, 16)        64        
 hNormalization)                                                 
                                                                 
 re_lu_2 (ReLU)              (None, 1, 27, 16)         0         
                                                                 
 max_pooling2d_1 (MaxPooling  (None, 1, 13, 16)        0         
 2D)                                                             
                                                                 
 conv2d_3 (Conv2D)           (None, 1, 13, 16)         768       
                                                                 
 batch_normalization_3 (Batc  (None, 1, 13, 16)        64        
 hNormalization)                                                 
                                                                 
 re_lu_3 (ReLU)              (None, 1, 13, 16)         0         
                                                                 
 conv2d_4 (Conv2D)           (None, 1, 13, 16)         768       
                                                                 
 batch_normalization_4 (Batc  (None, 1, 13, 16)        64        
 hNormalization)                                                 
                                                                 
 re_lu_4 (ReLU)              (None, 1, 13, 16)         0         
                                                                 
 max_pooling2d_2 (MaxPooling  (None, 1, 6, 16)         0         
 2D)                                                             
                                                                 
 conv2d_5 (Conv2D)           (None, 1, 6, 16)          768       
                                                                 
 batch_normalization_5 (Batc  (None, 1, 6, 16)         64        
 hNormalization)                                                 
                                                                 
 re_lu_5 (ReLU)              (None, 1, 6, 16)          0         
                                                                 
 conv2d_6 (Conv2D)           (None, 1, 6, 16)          768       
                                                                 
 batch_normalization_6 (Batc  (None, 1, 6, 16)         64        
 hNormalization)                                                 
                                                                 
 re_lu_6 (ReLU)              (None, 1, 6, 16)          0         
                                                                 
 max_pooling2d_3 (MaxPooling  (None, 1, 3, 16)         0         
 2D)                                                             
                                                                 
 conv2d_7 (Conv2D)           (None, 1, 3, 16)          768       
                                                                 
 batch_normalization_7 (Batc  (None, 1, 3, 16)         64        
 hNormalization)                                                 
                                                                 
 re_lu_7 (ReLU)              (None, 1, 3, 16)          0         
                                                                 
 conv2d_8 (Conv2D)           (None, 1, 3, 16)          768       
                                                                 
 batch_normalization_8 (Batc  (None, 1, 3, 16)         64        
 hNormalization)                                                 
                                                                 
 re_lu_8 (ReLU)              (None, 1, 3, 16)          0         
                                                                 
 max_pooling2d_4 (MaxPooling  (None, 1, 1, 16)         0         
 2D)                                                             
                                                                 
 flatten (Flatten)           (None, 16)                0         
                                                                 
 dense (Dense)               (None, 10)                170       
                                                                 
 softmax (Softmax)           (None, 10)                0         
                                                                 
=================================================================
Total params: 6,430
Trainable params: 6,166
Non-trainable params: 264
_________________________________________________________________
FLOPS : 0.17 G
