Model: "sequential"
_________________________________________________________________
 Layer (type)                Output Shape              Param #   
=================================================================
 conv2d (Conv2D)             (None, 58, 58, 16)        448       
                                                                 
 conv2d_1 (Conv2D)           (None, 56, 56, 16)        2320      
                                                                 
 conv2d_2 (Conv2D)           (None, 54, 54, 16)        2320      
                                                                 
 conv2d_3 (Conv2D)           (None, 52, 52, 16)        2320      
                                                                 
 max_pooling2d (MaxPooling2D  (None, 26, 26, 16)       0         
 )                                                               
                                                                 
 flatten (Flatten)           (None, 10816)             0         
                                                                 
 dropout (Dropout)           (None, 10816)             0         
                                                                 
 dense (Dense)               (None, 2)                 21634     
                                                                 
=================================================================
Total params: 29,042
Trainable params: 29,042
Non-trainable params: 0
_________________________________________________________________
